models/emotion_classifier.pth (torch, 234265 bytes, 6 tensors)

layers.0.weight f4 [128, 384]
0	0xbc639077	-0.013889424
1	0x3d6c10bb	0.057633143
2	0x3d2d3fe4	0.04229726
3	0xbc87d6bd	-0.016581887
4	0xbd29bdf1	-0.041440908
5	0xbc3f0222	-0.011658223
6	0xbd103c53	-0.03521378
7	0xbcd75c41	-0.026289107
8	0xbcd7e607	-0.026354803
9	0xbd6f9f87	-0.058501747
10	0xbd57a4e5	-0.05264749
11	0x3c186b50	0.009302929
12	0x3d7bc809	0.061470065
13	0xbd54c62a	-0.051946796
14	0x3d309daa	0.04311911
15	0x3d25c543	0.040471327
16	0xbce64306	-0.028108131
17	0xbc37f47a	-0.011227721
18	0xbd191957	-0.03737768
19	0x3d0f9497	0.035053816
20	0x3d7fef11	0.06248385
21	0x3c8a5e74	0.016890742
22	0x3cfa571f	0.03055912
23	0x3d7564ef	0.05991071
24	0x3c09fdc9	0.0084223235
25	0x3be19d0e	0.0068851775
26	0xbc2e9773	-0.0106562255
27	0xbc90c096	-0.017669957
28	0x3c4563c3	0.012047711
29	0xbc301af2	-0.010748612
30	0xbc64afd4	-0.013957936
31	0x3d9648f0	0.073381305
32	0x3cdefaf9	0.027219282
33	0x3d2d1d90	0.04226452
34	0xbd8bb942	-0.068224445
35	0x3d467c8c	0.04845862
36	0xbbb7c301	-0.005607963
37	0xbcba0834	-0.02270899
38	0x3d373b17	0.044734087
39	0xbd1fdfc8	-0.039031774
40	0x3ce52529	0.02797182
41	0x3d3e6954	0.046487167
42	0xbd8bf7e1	-0.068343885
43	0x3d393037	0.045211997
44	0xbc975bc8	-0.018476382
45	0xbc4d7efe	-0.012542484
46	0x3bc8f606	0.006132844
47	0x3b9af595	0.0047289827
48	0x3c7328f8	0.014841311
49	0xbcde35f7	-0.027125342
50	0xbc94c95b	-0.01816242
51	0xbd80974a	-0.06278856
52	0xbc425fd0	-0.011863664
53	0x3caec3b4	0.021333553
54	0xbd13d9db	-0.036096435
55	0x3c0cdcea	0.008597592
56	0x3c8ef7de	0.017452177
57	0xbcd24437	-0.025667293
58	0xbd15117e	-0.036393635
59	0xbd3db06b	-0.046310823
60	0x3d81be79	0.06335158
61	0xbd344876	-0.044014417
62	0x3d3a552f	0.045491394
63	0x3d309e99	0.04312
64	0x3c90fb5a	0.017697979
65	0x3d33e9bf	0.04392409
66	0xbcff7261	-0.03118247
67	0xbd0e2fc2	-0.034713514
68	0x3d181422	0.037128575
69	0xbd832f11	-0.064054616
70	0xba1137a2	-0.0005539601
71	0xbc901c89	-0.017591732
72	0x3c74b0d3	0.014934736
73	0x3d2f53df	0.042804595
74	0xbd2e621c	-0.042574033
75	0x37f8143d	2.9573328e-05
76	0xbd7de011	-0.061981265
77	0xbcd5cd77	-0.02609895
78	0x3ccecfee	0.025245633
79	0xbd210d68	-0.039319426
80	0xbd2b5a5b	-0.041834217
81	0xbccc32b2	-0.024926517
82	0x3c4f8fac	0.012668531
83	0xbc763f3f	-0.0150297275
84	0xbccc79ac	-0.024960361
85	0xbc4facad	-0.012675446
86	0x3c56e18b	0.013115297
87	0x3bce31e3	0.006292568
88	0xbd423fcc	-0.047424123
89	0x3d8a4d7f	0.067530625
90	0xbbd1b38a	-0.0063995766
91	0x3cafa4e0	0.021440923
92	0x3c07ee2d	0.008296532
93	0x3d93fdf3	0.07226171
94	0xbc71de45	-0.014762466
95	0x3d143bcc	0.03618984
96	0x3c565ab9	0.013083153
97	0x3d165c16	0.036708914
98	0x3c91f402	0.017816547
99	0x3d1c82cb	0.03821067
100	0x3c603570	0.0136846155
101	0x3caa60d0	0.020798117
102	0xbd1257e6	-0.035728358
103	0x3cb39f59	0.021926569
104	0xbd7a11be	-0.061052077
105	0x3cee0c6e	0.029058661
106	0x3c797d14	0.015227575
107	0xbcdf8b4c	-0.027288102
108	0xbcd86ff1	-0.026420565
109	0x3d4fb71d	0.05071174
110	0xbc9adbfb	-0.018903723
111	0x3b4dee73	0.0031422644
112	0xbd4fef88	-0.050765544
113	0x3d045bca	0.0323141
114	0x3d168fa7	0.03675809
115	0x3acb6a43	0.0015519339
116	0x3b5adc62	0.0033395519
117	0xbd4480fa	-0.047974564
118	0x3af7372c	0.0018861047
119	0x3d2fe6ea	0.042944826
120	0x3d4d2257	0.050081577
121	0xbd2704dc	-0.04077612
122	0xbd9b8f72	-0.075957194
123	0xbd1cdecd	-0.038298417
124	0xbd1a7f05	-0.03771879
125	0xbb932395	-0.0044903257
126	0xbcf0e852	-0.029407654
127	0x3ce3a1fc	0.027787201
128	0xba2ce121	-0.0006594826
129	0x3d2dbf25	0.042418618
130	0xbb98cedb	-0.004663331
131	0xbd037ff4	-0.032104447
132	0xbbeb975a	-0.0071896734
133	0xbd657f9e	-0.05602991
134	0x3c997f78	0.01873754
135	0xbd446099	-0.047943685
136	0x3caddc60	0.021223247
137	0x3cf21217	0.029549642
138	0xbd1c551d	-0.038167108
139	0x3b151a07	0.002275111
140	0xbd58584d	-0.052818585
141	0x3b8d8099	0.0043183086
142	0x3bbc6e95	0.005750487
143	0x3cbaa658	0.022784397
144	0xbb521c97	-0.0032060498
145	0x3ccb48a7	0.024814917
146	0xbd4d30b2	-0.050095268
147	0xbd2828c6	-0.04105451
148	0x3d4dea23	0.05027212
149	0x3d6d5671	0.057943765
150	0x3cd05a68	0.025433734
151	0x3d1dd4f8	0.03853318
152	0x3d43df5e	0.04782044
153	0xbac19b58	-0.0014771027
154	0x3cfbc4c6	0.030733477
155	0x3c121f0d	0.008918536
156	0xbd3529b9	-0.044229243
157	0xbd1a876a	-0.037726797
158	0xbda0f954	-0.078600556
159	0xbc8f38b0	-0.017483085
160	0xbda5f91f	-0.08104157
161	0x3c08c70b	0.008348237
162	0x3cb575f7	0.022150977
163	0x3c8904bd	0.016725892
164	0xbd820bcd	-0.06349907
165	0x3d2064f0	0.03915876
166	0x3d2d95cc	0.042379186
167	0xbd4a8230	-0.049440563
168	0x3a8a655a	0.001055877
169	0xbcf760c9	-0.030197518
170	0x3c7c02cc	0.015381526
171	0x3c7ad99f	0.015310674
172	0x3c8db504	0.017298229
173	0xbcb33b69	-0.021878915
174	0x3bfb7e33	0.007674956
175	0x3b6d6572	0.0036223796
176	0x3bc449c8	0.0059902407
177	0x3ca34000	0.019927979
178	0xbd171b7b	-0.03689144
179	0xbd90e1eb	-0.070743404
180	0xbc5d09ff	-0.013491153
181	0x3d35155f	0.044209834
182	0x3ca87d24	0.020567484
183	0xbd1a06ba	-0.03760407
184	0x3b178af1	0.0023123587
185	0xbaec9edf	-0.0018052718
186	0x3c9b05bf	0.018923638
187	0xbd678839	-0.056526396
188	0xbb8642e7	-0.004097331
189	0xbd70d777	-0.058799233
190	0xbadb2d9b	-0.0016721966
191	0x3c0f956d	0.008763653
192	0xbcbc87ad	-0.023013914
193	0x3d0eca3a	0.034860827
194	0x3bdcd90e	0.006739742
195	0x3cfe198d	0.031018043
196	0xbb99d0c6	-0.004694077
197	0xbd234ff8	-0.039871186
198	0x3c751b7e	0.014960168
199	0x3c000c11	0.007815377
200	0x3c87c829	0.016574936
201	0x3c877822	0.016536776
202	0xbd36e921	-0.044655923
203	0xbce068cd	-0.027393723
204	0xbd05e686	-0.032690547
205	0xbc4c6734	-0.012475777
206	0xbcc5b096	-0.024132054
207	0x3d84f811	0.064926274
208	0xbd4ab18c	-0.04948573
209	0xbd5cd0de	-0.05391013
210	0xbd678bee	-0.05652993
211	0x3b1d1d16	0.0023973635
212	0xbcbd9e01	-0.023146631
213	0x3ce97eac	0.028502785
214	0xbcbc77b9	-0.023006307
215	0xbc3f6dc0	-0.011683881
216	0xbc8620e3	-0.016373103
217	0x3d6db9ac	0.0580384
218	0x3d675f2e	0.056487255
219	0x399875bc	0.00029079418
220	0xbcb47406	-0.02202798
221	0x3be5b34c	0.0070098992
222	0x3d20a1b5	0.039216716
223	0x3d78d7e6	0.06075277
224	0xbd2d0c9a	-0.042248346
225	0x3d09b7c5	0.033622522
226	0x3d829496	0.06375997
227	0xbd323988	-0.043511897
228	0xbc899a32	-0.016797159
229	0x3d0a77a2	0.033805497
230	0x3c65c2e4	0.014023516
231	0xbc96ba67	-0.01839943
232	0xbcb269ca	-0.02177896
233	0xbc920c41	-0.017828109
234	0x3b66bc90	0.0035207607
235	0xba3901bb	-0.0007057448
236	0xbd7976e2	-0.06090439
237	0x3d5bcb9e	0.05366098
238	0x3caa4af0	0.020787686
239	0xbd231a74	-0.03982015
240	0xbbae2a43	-0.0053150966
241	0xbccf3e11	-0.02529815
242	0x3d8ea78c	0.06965551
243	0xbd181ea9	-0.037138615
244	0xbcb6c6aa	-0.022311527
245	0x3d0232e3	0.03178681
246	0xbd2c7278	-0.042101353
247	0xbceb7c4d	-0.028745795
248	0x3ca649a0	0.020298779
249	0xbd1251a7	-0.0357224
250	0x3d01b594	0.031667307
251	0xbd1eb345	-0.038745183
252	0x3c57c0ff	0.013168572
253	0xbcd073c5	-0.025445828
254	0x3cd2c794	0.025729932
255	0xbc19f283	-0.009396198

layers.0.bias f4 [128]
0	0xbd1d4eea	-0.038405336
1	0x3d3beb75	0.045878846
2	0x3d4970f0	0.04917997
3	0xbd080def	-0.033216413
4	0xbd0b7902	-0.03405095
5	0xba50a59a	-0.0007959247
6	0x3d00d023	0.031448495
7	0x3d25eb85	0.040507812
8	0xba93d22c	-0.0011277846
9	0x3c8592f2	0.01630542
10	0xb9b5a64c	-0.0003464691
11	0xbd2cd8b2	-0.042198844
12	0x3d3e6c71	0.046490137
13	0x3a4a84db	0.00077254855
14	0xbd4ee77c	-0.05051373
15	0xbd2bf3ab	-0.041980427
16	0x3d349515	0.04408749
17	0xbd5cb802	-0.05388642
18	0xbbc9d1b4	-0.0061590318
19	0xbce4b051	-0.027916105
20	0xbc824a30	-0.015904516
21	0x3cffe933	0.031239128
22	0xbd411ccc	-0.047146603
23	0x3ca0db39	0.019635784
24	0x3d31836b	0.04333822
25	0xbd5c16c0	-0.053732634
26	0x3cf1c3bb	0.029512277
27	0xbc1e0e66	-0.009646988
28	0xbd55514b	-0.05207948
29	0xbd0c3036	-0.034225665
30	0xba7390a8	-0.000929127
31	0x3c501447	0.012700147
32	0x3cc36b8b	0.023854991
33	0x3d068a22	0.032846577
34	0x3d050368	0.03247395
35	0xbcc66506	-0.024218094
36	0xbbafdee7	-0.005367148
37	0x3d690c3e	0.05689644
38	0xbc0af020	-0.008480102
39	0xbd42f820	-0.04759991
40	0x3ce6d402	0.028177265
41	0x3d2a0ccf	0.04151612
42	0x3c9c3a7f	0.019070862
43	0x3ad3ddd0	0.0016164128
44	0xbc999826	-0.018749308
45	0xbd474456	-0.048649155
46	0x39cb054a	0.00038723118
47	0xbd179da6	-0.03701558
48	0xbd24ea3d	-0.04026245
49	0xbd4b9eca	-0.04971198
50	0x3c93acf6	0.01802681
51	0xbca8088d	-0.02051189
52	0x3d49de29	0.049284134
53	0x3d003481	0.03130007
54	0xbc0da5ef	-0.008645519
55	0x3c173fa7	0.0092314845
56	0xbc8fc3d9	-0.017549442
57	0x3cab3f79	0.02090429
58	0xbcf608f3	-0.030033564
59	0x3d5e53bf	0.054279085
60	0x3cb6996a	0.02228995
61	0x3c30bb05	0.010786776
62	0xbcb14f34	-0.021644212
63	0x3d57b81f	0.052665826
64	0xbd3983de	-0.045291774
65	0xbcf9fa33	-0.030514812
66	0x3ce5a7c4	0.028034098
67	0xbd3fd42f	-0.046833213
68	0xbb888b94	-0.0041670296
69	0xbb245bbb	-0.002507909
70	0x3d0a3e2e	0.033750705
71	0xbcbad429	-0.022806244
72	0xbd141c1d	-0.036159623
73	0xbc7370e0	-0.0148584545
74	0x3bdee590	0.0068022683
75	0xbd09d43b	-0.033649664
76	0xbcd390a6	-0.02582581
77	0x3d227568	0.03966275
78	0xbd3ae181	-0.045625214
79	0x3d33ba3f	0.04387879
80	0x3c79da88	0.015249856
81	0x3c22034d	0.009888482
82	0xbb4fe4bb	-0.0031722027
83	0x3d1288ec	0.03577511
84	0xbcc5e534	-0.024157144
85	0xbb0c4f5e	-0.0021409611
86	0xbd311a9c	-0.043238267
87	0xbd33862b	-0.043829124
88	0xbcde0343	-0.027101165
89	0xbcbd2154	-0.023087181
90	0x3d08154b	0.03322343
91	0x3d0a9588	0.03383401
92	0xbd6f6d5f	-0.058453914
93	0xbb32119e	-0.0027171145
94	0xbcf413e6	-0.029794645
95	0xbce787eb	-0.028263053
96	0xbcd46b85	-0.025930176
97	0x3d1fd44b	0.039020818
98	0x3b0ca516	0.0021460704
99	0x3b911e17	0.004428636
100	0xbb85ead5	-0.004086832
101	0x3c8e8256	0.017396133
102	0x3d138a7b	0.036020737
103	0x3d20e288	0.039278537
104	0xbd0d4c79	-0.034496758
105	0x3cbc873a	0.0230137
106	0xbcc95526	-0.024576735
107	0x3d160079	0.036621545
108	0x3cee6055	0.029098669
109	0xbcbcf08a	-0.023063917
110	0xbc23f7b2	-0.010007786
111	0xbd406f67	-0.04698124
112	0xbc1361b2	-0.00899546
113	0x3d1f7c6a	0.03893701
114	0x3b25f7ec	0.0025324775
115	0x3ce5b0cd	0.028038407
116	0xbd68ba8b	-0.056818526
117	0xbd2504eb	-0.040287893
118	0xbccd6bac	-0.025075756
119	0x3c026871	0.007959471
120	0x3d0df179	0.034654114
121	0xbd024d6c	-0.031812117
122	0x3d38c594	0.0451103
123	0x3ba4a0b1	0.0050240387
124	0x3a3de5c4	0.00072440156
125	0x3d1c1bc7	0.038112428
126	0xbd08e463	-0.03342093
127	0x3c9a4d77	0.018835766

layers.3.weight f4 [64, 128]
0	0xbd9a199a	-0.07524414
1	0xbba377a9	-0.00498863
2	0x3db3f35c	0.087866515
3	0xbcca80c9	-0.024719613
4	0x3d107627	0.03526893
5	0xbdab2bc4	-0.08357957
6	0xbdd22772	-0.1026143
7	0x3d0894f4	0.033345178
8	0xbbc471b2	-0.005994999
9	0x3d1b29a8	0.037881523
10	0x3bcc3f54	0.0062331352
11	0x3d472313	0.048617434
12	0x3da777d3	0.081771515
13	0xbc4cac28	-0.012492217
14	0xbd87998c	-0.066210836
15	0xbdb2b166	-0.08725242
16	0x3c8c65ad	0.017138327
17	0x3d2fa9b2	0.042886443
18	0xbd1abcd8	-0.03777775
19	0x3c4d503d	0.012531337
20	0xbca8eafd	-0.020619864
21	0xbce4e1c5	-0.027939687
22	0x3d110882	0.035408504
23	0x3cfffe8e	0.03124931
24	0xbdc19aa7	-0.09453326
25	0x3cd2d675	0.025737027
26	0xbdc7b8da	-0.097520545
27	0xbdb2f859	-0.08738775
28	0xbd2c2c47	-0.042034414
29	0x3d85e6e0	0.065381765
30	0xbca4e1ef	-0.020127265
31	0x3c1d74de	0.009610383
32	0xbab7be60	-0.0014018528
33	0x3d683a58	0.056696266
34	0x3d633033	0.05546589
35	0xbcf34a4f	-0.029698519
36	0xbb65f79e	-0.0035090218
37	0x3d84d3fa	0.06485744
38	0xbcb2f427	-0.021844937
39	0xbdb7f540	-0.089823246
40	0x3d39f897	0.04540309
41	0x3d6b23b3	0.057407092
42	0xbc623e94	-0.013808865
43	0x3cf844c0	0.03030622
44	0xbd6a27aa	-0.057166733
45	0x3ddb3239	0.107029386
46	0xbd1221b7	-0.035676684
47	0x3c0736f8	0.008252852
48	0x3b9bfb02	0.004760147
49	0xbd14a35f	-0.036288615
50	0x3c9dc95c	0.019261055
51	0xbd24c309	-0.040225063
52	0x3dcaa9b4	0.098956496
53	0xbc8bf331	-0.017083736
54	0xbd4b19bc	-0.04958509
55	0x3dbef1ea	0.09323485
56	0xbd906efa	-0.07052417
57	0xbd479095	-0.04872187
58	0x3cede42c	0.029039465
59	0xbd31a6ef	-0.04337209
60	0x3c6c8838	0.014436774
61	0x3d17b13f	0.03703427
62	0xbd9fa9a5	-0.07796029
63	0xbdad20f8	-0.08453554
64	0x3b1d774c	0.0024027405
65	0x3cfd2426	0.030901026
66	0x3d6f78a5	0.058464665
67	0x3d7f6aa2	0.062357552
68	0x3d099136	0.03358575
69	0x3d52113b	0.051285964
70	0xbc88ad39	-0.016684161
71	0x3c8f5a69	0.017499166
72	0xbd051a06	-0.03249552
73	0xbd7960c3	-0.060883295
74	0x3c8d3390	0.017236501
75	0xbd3f825d	-0.046755183
76	0xbd85847f	-0.06519412
77	0xbd6c4c1e	-0.05768978
78	0x3e297c0e	0.1655123
79	0x3d362a21	0.04447377
80	0x3cc249cf	0.023716835
81	0xbd9d70e3	-0.07687547
82	0x3db30878	0.0874185
83	0xba26d8c8	-0.00063647004
84	0xbda34069	-0.0797127
85	0xbcdcd07e	-0.026954886
86	0xbd17c1ee	-0.03705018
87	0xbdd3d942	-0.10344173
88	0x3d8be30c	0.06830415
89	0xbcbcc254	-0.023041882
90	0x3dd94f19	0.1061079
91	0xbd6ba39c	-0.057529077
92	0x3d590520	0.052983403
93	0xbbcda559	-0.0062758145
94	0x3d8107ae	0.06300293
95	0x3c93ad04	0.018026836
96	0x3c85ae98	0.016318604
97	0x3c2f7cd9	0.010710918
98	0xbda4f219	-0.08053989
99	0xbca93697	-0.020655913
100	0xbbb49c2d	-0.0055117817
101	0x3d1e262e	0.03861063
102	0x3d846c59	0.06465978
103	0xbc70b05f	-0.014690488
104	0x3ce3985f	0.027782617
105	0xbcfda2dc	-0.030961446
106	0xbcf62162	-0.030045215
107	0x3b97bc03	0.004630567
108	0xbdab44b5	-0.08362714
109	0xbd16a3b3	-0.03677721
110	0x3cd127ec	0.025531732
111	0xbd8acb42	-0.067770496
112	0x3d07d7a1	0.033164624
113	0x3cbeb13a	0.023277868
114	0xbd84b852	-0.06480469
115	0x3d357318	0.044299215
116	0xbcea027a	-0.028565634
117	0xbd523580	-0.051320553
118	0xbbe219a2	-0.0069000283
119	0xbc581288	-0.013188012
120	0xbd3d4519	-0.046208475
121	0xbd8febfc	-0.07027432
122	0xbd67a399	-0.056552503
123	0xbcb259a5	-0.021771261
124	0xbc48e352	-0.012261229
125	0xbdaa0b97	-0.08302992
126	0xbce59ad8	-0.028027937
127	0x3d518576	0.05115267
128	0x3c99e741	0.018787028
129	0x3bb00814	0.0053720567
130	0xbd4ec293	-0.05047853
131	0x3cb4b246	0.022057664
132	0xbd0b8423	-0.034061562
133	0xbd6011ff	-0.054704662
134	0x3cc7bb06	0.024381172
135	0xbcb291ca	-0.021798033
136	0x3dc534e3	0.09629228
137	0xbced2379	-0.028947579
138	0xbd3dec50	-0.046367943
139	0x3de6683c	0.1125035
140	0x3dc1e11c	0.09466764
141	0x3c57f06b	0.013179879
142	0x3d097abb	0.03356431
143	0xbd583d2d	-0.052792717
144	0xbdaf8bf9	-0.085716195
145	0x3d644246	0.055727266
146	0x3ddf72c8	0.10910565
147	0xbdb786ca	-0.08961256
148	0x3d234ff0	0.039871156
149	0x3dc8420f	0.09778225
150	0xbd5843fa	-0.052799203
151	0x3c91ca6a	0.017796714
152	0x3db4c896	0.08827321
153	0x3da676b2	0.08128108
154	0x3c409167	0.011753417
155	0x3b1144e6	0.002216631
156	0x3d80039f	0.06250691
157	0xbdb8a10b	-0.090150915
158	0xbd350bea	-0.044200815
159	0x3da0b6f3	0.07847395
160	0x3cbd2280	0.02308774
161	0xbdf04e32	-0.117336646
162	0xbda5f34d	-0.081030466
163	0xbcf7bae5	-0.030240485
164	0x3d9d71db	0.07687732
165	0x3ca5b3f9	0.02022742
166	0x3d154d9d	0.03645097
167	0xbd07b3b3	-0.03313036
168	0xbd41cfd7	-0.047317352
169	0x3c2beb79	0.010493153
170	0xbbc75858	-0.0060835294
171	0x3cae3ba7	0.021268679
172	0xbda51319	-0.08060283
173	0xbbeda801	-0.0072526936
174	0x3d7bc56c	0.061467573
175	0xbb868f0e	-0.004106409
176	0xbd8e6493	-0.06952777
177	0x3c4a2bad	0.012339515
178	0x3dbd2869	0.09236223
179	0xbb53c405	-0.0032312882
180	0xbd85dc12	-0.06536116
181	0x3daab80a	0.08335884
182	0x3d90ee3d	0.0707669
183	0xb924fc04	-0.00015734142
184	0x3c77eafc	0.015131708
185	0xbd818dd2	-0.06325878
186	0x3d6231b2	0.055223174
187	0x3c1612c3	0.009159747
188	0x3d4ef10c	0.05052285
189	0x3d414d89	0.047193084
190	0x3dedfcb8	0.11620468
191	0x3d28bc8b	0.041195434
192	0x3d258866	0.040413283
193	0xbd160ffa	-0.03663633
194	0xbdaef2cc	-0.085424036
195	0xbcb231b9	-0.021752225
196	0xbd80253a	-0.062571004
197	0xbca058e6	-0.01957364
198	0xbc65d571	-0.014027939
199	0xbd2d394b	-0.042290967
200	0xbc6962a2	-0.014244707
201	0xbd556b34	-0.05210419
202	0xbd3e375e	-0.04643952
203	0x3c5a39d4	0.013319451
204	0xbddaca8e	-0.106831655
205	0x3ce87cb5	0.028379777
206	0xbd8d3561	-0.06894947
207	0x3d369a57	0.044580784
208	0xbcff6d45	-0.031180033
209	0xbc832495	-0.016008655
210	0x3aa84b4f	0.0012839827
211	0xbd8116c4	-0.0630317
212	0xbd429147	-0.04750183
213	0xbda25583	-0.07926466
214	0x3d83ab94	0.0642921
215	0x3d2e4451	0.04254562
216	0x3cba9a66	0.022778701
217	0x3d9e09d4	0.07716718
218	0xbd8886cb	-0.06666335
219	0x3c638e9d	0.013888982
220	0xbb8291b1	-0.003984653
221	0xbd2b8d1d	-0.041882623
222	0xbd1f2190	-0.038850367
223	0x3cba5455	0.02274529
224	0x3ddf5182	0.10904218
225	0x3d76f072	0.0602879
226	0xbda8650e	-0.082224
227	0xbb078461	-0.002067827
228	0xbcbd7c3d	-0.02313053
229	0x3d8662f9	0.06561846
230	0x3cb9be7d	0.02267384
231	0xbca97af3	-0.02068851
232	0x3d0dc6fb	0.03461359
233	0xbc8233e8	-0.015893891
234	0xba1b3b3b	-0.0005921607
235	0xbdb49246	-0.08816962
236	0x3d255bf4	0.040370896
237	0xbc3bd00b	-0.0114631755
238	0x3cd1f720	0.025630534
239	0x3d8e4477	0.069466524
240	0x3db80a2c	0.08986315
241	0xbcefe70d	-0.029284978
242	0xbdb6eca2	-0.08931853
243	0xbda20e0e	-0.07912837
244	0x3de84278	0.11340803
245	0xbdb6b501	-0.089212425
246	0xbda1d45f	-0.07901835
247	0xbd52c5bf	-0.051458117
248	0x3d8493f3	0.064735316
249	0xbb9e7d48	-0.004836712
250	0x3d8c8249	0.068607874
251	0x3c122cc3	0.008921805
252	0xbd842f7f	-0.06454372
253	0xbd6cda07	-0.057825115
254	0xbd9b780f	-0.07591259
255	0xbd5422ec	-0.051791117

layers.3.bias f4 [64]
0	0x3dbedf6b	0.09319957
1	0x3d4a0304	0.049319282
2	0x3c97b9d0	0.01852122
3	0xbca6f58f	-0.020380763
4	0x3c5bbfc7	0.0134124225
5	0xbd7b14cb	-0.061299127
6	0x3d96c609	0.07361991
7	0x3d62b0aa	0.05534426
8	0xbd13613a	-0.035981394
9	0x3dc7d556	0.097574875
10	0x3cb11703	0.021617418
11	0x3d2d45e8	0.042302996
12	0x3d14c1f2	0.036317773
13	0xbd972dfd	-0.073818184
14	0x3da54132	0.08069076
15	0x3be6498c	0.0070278104
16	0xbc05e652	-0.008172588
17	0xbd357b96	-0.044307314
18	0xbd18b189	-0.037278686
19	0x3c040d3f	0.008059799
20	0x3c9ce226	0.019150805
21	0x3ca0e267	0.019639207
22	0xbd46bc3e	-0.048519365
23	0x3dbc9967	0.09208947
24	0x3d2ef145	0.04271056
25	0x3d0c4b66	0.034251593
26	0x3da1de2e	0.079037055
27	0x3c5c8fa5	0.013461982
28	0xbd94f5f4	-0.07273474
29	0x3d385847	0.045006063
30	0xbbe97ad8	-0.00712524
31	0xbd425b11	-0.04745013
32	0x3d56e1ab	0.052461307
33	0xbd278d61	-0.040906314
34	0xbda8aca8	-0.082360566
35	0x3d1b24ef	0.03787702
36	0x3d9ee155	0.077578224
37	0xbd5af31e	-0.05345451
38	0xbae2df6e	-0.0017309019
39	0x3d1abbf8	0.037776917
40	0x3d287762	0.041129477
41	0x3db46a3e	0.088093266
42	0xbbe7283e	-0.007054358
43	0xbd55a1f0	-0.05215639
44	0x3ca3612e	0.0199438
45	0x3d17ec06	0.037090324
46	0x3d9ff817	0.07810991
47	0xbbb63b71	-0.005561285
48	0x3d30b43b	0.04314063
49	0xbcd0e9e0	-0.025502145
50	0x3d3bc90c	0.04584603
51	0x3dbe4d95	0.09292141
52	0xbd816668	-0.063183606
53	0xbccf866a	-0.025332648
54	0xbd5c11bb	-0.053727847
55	0xbd7a9d56	-0.061185203
56	0xbdb8d229	-0.0902446
57	0xbd6b8494	-0.057499483
58	0x3d869d8a	0.06573017
59	0xbd366d27	-0.04453769
60	0x3ce7a0bf	0.028274892
61	0xbd61ccbf	-0.0551269
62	0x3d98934e	0.07449971
63	0x3cafda3d	0.021466369

layers.5.weight f4 [3, 64]
0	0xbe334984	-0.17508513
1	0x3dd89b6a	0.10576518
2	0xbccc5047	-0.024940623
3	0x3e0933b6	0.13398632
4	0xbe332bf2	-0.17497233
5	0xba2ce907	-0.0006596003
6	0x3de524ed	0.11188684
7	0xbdd1253a	-0.102121785
8	0x3c79ca3f	0.015245973
9	0xbd6ecff1	-0.058303777
10	0x3ddab8ad	0.10679755
11	0xbdbbcc85	-0.091698684
12	0xbc513e2a	-0.012771169
13	0xbd41ef70	-0.047347486
14	0xbe05a283	-0.13050275
15	0x3d267b85	0.04064514
16	0x3d619702	0.055075653
17	0x3d1ef69e	0.03880941
18	0x3d5e4ac8	0.054270536
19	0x3d430a68	0.047617346
20	0xbe2a0b99	-0.16605987
21	0x3d308222	0.043092854
22	0x3ccd2aa4	0.025044747
23	0x3ddbfcc2	0.10741569
24	0xbceaa463	-0.028642839
25	0x3bebba7a	0.0071938606
26	0xbd00fb58	-0.0314897
27	0xbdf29818	-0.11845416
28	0x3d4e2569	0.050328646
29	0x3df11b7e	0.11772822
30	0xbcaafc53	-0.02087227
31	0x3d84eece	0.06490861
32	0xbe226e22	-0.15862325
33	0xbde17f31	-0.11010588
34	0x3df6efce	0.12057458
35	0xbd2793e2	-0.040912516
36	0xbdfedfb4	-0.12445012
37	0xbc0a133e	-0.008427439
38	0xbda4e055	-0.080506004
39	0x3e0ac5b5	0.13551982
40	0xba95fbad	-0.0011442803
41	0xbe06ec8a	-0.1317617
42	0x3d8ca750	0.0686785
43	0xbe17a4d0	-0.14808965
44	0xbd43144b	-0.047626775
45	0xbe26633c	-0.16248792
46	0xbe347ce0	-0.17625761
47	0xbd644cdc	-0.05573736
48	0x3dad32f7	0.084569864
49	0xbda3b052	-0.07992615
50	0x3db1d9ce	0.08684121
51	0x3cf5b393	0.029992854
52	0x3bc4abec	0.00600194
53	0xbddfe60c	-0.1093255
54	0xbdde23f8	-0.10846704
55	0xbd811508	-0.063028395
56	0xbd228b89	-0.039683852
57	0x3d037eee	0.03210347
58	0x3ddeaded	0.108730175
59	0x3d1fbf7a	0.039000966
60	0xbd7626fd	-0.060095776
61	0xbe21ec3c	-0.15812773
62	0x3e05920c	0.13043994
63	0xbbd7b568	-0.0065829046
64	0xbde1dbaf	-0.110282294
65	0x3e012c78	0.1261462
66	0x3dcedf15	0.10101143
67	0xbd600f53	-0.054702114
68	0x3ddf2660	0.10895991
69	0x3de7ae44	0.113125354
70	0xbdd73d6b	-0.105097614
71	0xbdb42b9c	-0.0879738
72	0x3b574ef1	0.003285345
73	0x3db4e699	0.088330455
74	0x3db07e89	0.08617885
75	0xbe1171f2	-0.14203623
76	0x3d719c19	0.058986757
77	0xbdb46685	-0.088086165
78	0x3db5ad70	0.08870971
79	0x3d89d310	0.0672971
80	0x3d91cb1d	0.07118819
81	0xbd7b6962	-0.061379798
82	0x3cfe6c77	0.03105758
83	0x3dbcdae5	0.09221438
84	0x3de317b6	0.11088507
85	0xbdcf0bb5	-0.10109655
86	0x3e1e4465	0.15455778
87	0xbe2c3526	-0.1681715
88	0x3cc6a814	0.024250068
89	0x3da07997	0.078356914
90	0x3db3620b	0.087589346
91	0xbddaa682	-0.1067629
92	0xbb8fe0f3	-0.0043908297
93	0xbe26d200	-0.16291046
94	0xbe1dd16e	-0.15411922
95	0xbe0490a6	-0.12945804
96	0x3a9f16e5	0.001213756
97	0x3d8cc38a	0.068732336
98	0x3ce36987	0.02776028
99	0xbbb24ae2	-0.0054410556
100	0xbe14dbf7	-0.14537035
101	0x3dbe6b5e	0.092978224
102	0xbd6e7af9	-0.058222745
103	0xbd870ffa	-0.06594844
104	0x3cfa7ef8	0.030578122
105	0xbd8c5a9f	-0.06853222
106	0xbd02915c	-0.031876907
107	0x3b20bc7d	0.002452641
108	0xbda7192b	-0.08159097
109	0xbd715d53	-0.05892689
110	0xbd2b09b2	-0.041757293
111	0x3da84d50	0.08217871
112	0xbcf777fd	-0.030208582
113	0x3bba95d9	0.0056941328
114	0xbde174a7	-0.11008578
115	0x3d43238a	0.047641315
116	0xbdb366d8	-0.0875985
117	0x3c885112	0.01664022
118	0xbd9d2edc	-0.07674953
119	0xbe04426f	-0.12915967
120	0x3d8bcd76	0.06826298
121	0xbde92797	-0.11384504
122	0xbe137f16	-0.14403948
123	0x3ba697dd	0.0050840215
124	0xbcc370b5	-0.023857454
125	0x3ccadac4	0.024762519
126	0x3c142aff	0.009043454
127	0x3d713414	0.058887556
128	0xbdb8aafa	-0.09016986
129	0xbdec3e7c	-0.115353554
130	0x3c5bf495	0.013425012
131	0x3db4ea50	0.08833754
132	0x3da089cd	0.078387834
133	0xbdfd5cf7	-0.12371247
134	0x3cb30e44	0.021857388
135	0x3da56837	0.08076518
136	0xbd99a37b	-0.075018845
137	0xbd30975c	-0.043113098
138	0x3da3f5c1	0.08005858
139	0x3d839639	0.06425137
140	0x3d474edf	0.0486592
141	0xbdabedf8	-0.08394998
142	0x3c35ddd4	0.011100251
143	0xbd6fb07b	-0.058517914
144	0xbde105af	-0.10987412
145	0xbd655087	-0.055985
146	0xbd78aa50	-0.060709298
147	0x3d931ee3	0.071836255
148	0xbb770807	-0.0037693994
149	0xbd566c67	-0.052349474
150	0xbd91c5be	-0.071177945
151	0x3c6ae18a	0.014335999
152	0x3dcba42c	0.09943423
153	0xbde9185a	-0.11381598
154	0x3b93a4fc	0.0045057517
155	0xbd8c2f5e	-0.06844972
156	0xbd4722e2	-0.04861725
157	0x3d6d286f	0.05789989
158	0x3ded3423	0.1158221
159	0xbcea2784	-0.028583296
160	0xbe023565	-0.12715681
161	0x3d99247e	0.074776635
162	0xbe044ff8	-0.1292113
163	0xbdec268d	-0.115307905
164	0xbda6f3e4	-0.08151987
165	0x3b724180	0.003696531
166	0xbd84c896	-0.06483571
167	0xbdf20600	-0.11817551
168	0xbc9617a6	-0.018321823
169	0xbcc75266	-0.024331283
170	0xbda0647e	-0.07831667
171	0xbdf9faeb	-0.12206062
172	0x3dc2a78d	0.09504614
173	0x3df645fb	0.120250665
174	0xbd00f1fd	-0.031480778
175	0xbd1f8065	-0.038940806
176	0xbd3199af	-0.043359455
177	0xbdef0f5d	-0.11672852
178	0xbd5f385e	-0.054497115
179	0xbd828f32	-0.063749686
180	0xbe067a4b	-0.13132589
181	0x3c96bf8a	0.01840188
182	0x3cb86301	0.022508146
183	0xbd3369a0	-0.043801904
184	0xbd8f763c	-0.07004973
185	0xbda4df0e	-0.08050357
186	0xbc75b547	-0.014996833
187	0xbd8933d4	-0.066993386
188	0xbc293478	-0.010327451
189	0x3d297d33	0.041379165
190	0xbe04532a	-0.1292235
191	0xbd42235a	-0.047396995

layers.5.bias f4 [3]
0	0x3d755378	0.059894055
1	0x3dc50ec2	0.096219555
2	0x3ddff5d7	0.10935562
